{"format": "graph-model", "generatedBy": "2.2.0", "convertedBy": "TensorFlow.js Converter v3.15.0", "signature": {"inputs": {"input": {"name": "input:0", "dtype": "DT_FLOAT", "tensorShape": {"dim": [{"size": "-1"}, {"size": "144"}, {"size": "256"}, {"size": "3"}]}}}, "outputs": {"output": {"name": "Identity:0", "dtype": "DT_FLOAT", "tensorShape": {"dim": [{"size": "-1"}, {"size": "144"}, {"size": "256"}, {"size": "1"}]}}}}, "modelTopology": {"node": [{"name": "input", "op": "Placeholder", "attr": {"shape": {"shape": {"dim": [{"size": "-1"}, {"size": "144"}, {"size": "256"}, {"size": "3"}]}}, "dtype": {"type": "DT_FLOAT"}}}, {"name": "StatefulPartitionedCall/model/394/strided_slice/stack", "op": "Const", "input": ["^input"], "attr": {"value": {"tensor": {"dtype": "DT_INT32", "tensorShape": {"dim": [{"size": "1"}]}}}, "dtype": {"type": "DT_INT32"}}}, {"name": "StatefulPartitionedCall/model/394/add/y", "op": "Const", "input": ["^input"], "attr": {"value": {"tensor": {"dtype": "DT_INT32", "tensorShape": {}}}, "dtype": {"type": "DT_INT32"}}}, {"name": "StatefulPartitionedCall/model/394/mul/y", "op": "Const", "input": ["^input"], "attr": {"value": {"tensor": {"dtype": "DT_INT32", "tensorShape": {}}}, "dtype": {"type": "DT_INT32"}}}, {"name": "StatefulPartitionedCall/model/394/strided_slice_1/stack_1", "op": "Const", "input": ["^input"], "attr": {"value": {"tensor": {"dtype": "DT_INT32", "tensorShape": {"dim": [{"size": "1"}]}}}, "dtype": {"type": "DT_INT32"}}}, {"name": "StatefulPartitionedCall/model/394/strided_slice_2/stack_1", "op": "Const", "input": ["^input"], "attr": {"value": {"tensor": {"dtype": "DT_INT32", "tensorShape": {"dim": [{"size": "1"}]}}}, "dtype": {"type": "DT_INT32"}}}, {"name": "StatefulPartitionedCall/model/394/strided_slice/stack_1", "op": "Const", "input": ["^input"], "attr": {"dtype": {"type": "DT_INT32"}, "value": {"tensor": {"dtype": "DT_INT32", "tensorShape": {"dim": [{"size": "1"}]}}}}}, {"name": "StatefulPartitionedCall/model/394/sub/y", "op": "Const", "input": ["^input"], "attr": {"value": {"tensor": {"dtype": "DT_INT32", "tensorShape": {}}}, "dtype": {"type": "DT_INT32"}}}, {"name": "Func/StatefulPartitionedCall/input/_82", "op": "Const", "input": ["^input"], "attr": {"value": {"tensor": {"dtype": "DT_FLOAT", "tensorShape": {"dim": [{"size": "16"}, {"size": "16"}, {"size": "1"}, {"size": "1"}]}}}, "dtype": {"type": "DT_FLOAT"}}}, {"name": "Func/StatefulPartitionedCall/input/_2", "op": "Const", "input": ["^input"], "attr": {"value": {"tensor": {"dtype": "DT_FLOAT", "tensorShape": {"dim": [{"size": "1"}, {"size": "1"}, {"size": "3"}, {"size": "3"}]}}}, "dtype": {"type": "DT_FLOAT"}}}, {"name": "Func/StatefulPartitionedCall/input/_3", "op": "Const", "input": ["^input"], "attr": {"value": {"tensor": {"dtype": "DT_FLOAT", "tensorShape": {"dim": [{"size": "3"}]}}}, "dtype": {"type": "DT_FLOAT"}}}, {"name": "Func/StatefulPartitionedCall/input/_4", "op": "Const", "input": ["^input"], "attr": {"dtype": {"type": "DT_FLOAT"}, "value": {"tensor": {"dtype": "DT_FLOAT", "tensorShape": {"dim": [{"size": "4"}, {"size": "4"}, {"size": "3"}, {"size": "32"}]}}}}}, {"name": "Func/StatefulPartitionedCall/input/_77", "op": "Const", "input": ["^input"], "attr": {"dtype": {"type": "DT_FLOAT"}, "value": {"tensor": {"dtype": "DT_FLOAT", "tensorShape": {"dim": [{"size": "54"}]}}}}}, {"name": "Func/StatefulPartitionedCall/input/_5", "op": "Const", "input": ["^input"], "attr": {"value": {"tensor": {"dtype": "DT_FLOAT", "tensorShape": {"dim": [{"size": "32"}]}}}, "dtype": {"type": "DT_FLOAT"}}}, {"name": "Func/StatefulPartitionedCall/input/_6", "op": "Const", "input": ["^input"], "attr": {"dtype": {"type": "DT_FLOAT"}, "value": {"tensor": {"dtype": "DT_FLOAT", "tensorShape": {"dim": [{"size": "3"}, {"size": "3"}, {"size": "32"}, {"size": "1"}]}}}}}, {"name": "Func/StatefulPartitionedCall/input/_7", "op": "Const", "input": ["^input"], "attr": {"value": {"tensor": {"dtype": "DT_FLOAT", "tensorShape": {"dim": [{"size": "32"}]}}}, "dtype": {"type": "DT_FLOAT"}}}, {"name": "Func/StatefulPartitionedCall/input/_8", "op": "Const", "input": ["^input"], "attr": {"value": {"tensor": {"dtype": "DT_FLOAT", "tensorShape": {"dim": [{"size": "1"}, {"size": "1"}, {"size": "32"}, {"size": "32"}]}}}, "dtype": {"type": "DT_FLOAT"}}}, {"name": "Func/StatefulPartitionedCall/input/_9", "op": "Const", "input": ["^input"], "attr": {"dtype": {"type": "DT_FLOAT"}, "value": {"tensor": {"dtype": "DT_FLOAT", "tensorShape": {"dim": [{"size": "32"}]}}}}}, {"name": "Func/StatefulPartitionedCall/input/_10", "op": "Const", "input": ["^input"], "attr": {"value": {"tensor": {"dtype": "DT_FLOAT", "tensorShape": {"dim": [{"size": "5"}, {"size": "5"}, {"size": "32"}, {"size": "1"}]}}}, "dtype": {"type": "DT_FLOAT"}}}, {"name": "Func/StatefulPartitionedCall/input/_11", "op": "Const", "input": ["^input"], "attr": {"dtype": {"type": "DT_FLOAT"}, "value": {"tensor": {"dtype": "DT_FLOAT", "tensorShape": {"dim": [{"size": "32"}]}}}}}, {"name": "Func/StatefulPartitionedCall/input/_12", "op": "Const", "input": ["^input"], "attr": {"value": {"tensor": {"dtype": "DT_FLOAT", "tensorShape": {"dim": [{"size": "1"}, {"size": "1"}, {"size": "32"}, {"size": "32"}]}}}, "dtype": {"type": "DT_FLOAT"}}}, {"name": "Func/StatefulPartitionedCall/input/_13", "op": "Const", "input": ["^input"], "attr": {"value": {"tensor": {"dtype": "DT_FLOAT", "tensorShape": {"dim": [{"size": "32"}]}}}, "dtype": {"type": "DT_FLOAT"}}}, {"name": "Func/StatefulPartitionedCall/input/_14", "op": "Const", "input": ["^input"], "attr": {"value": {"tensor": {"dtype": "DT_FLOAT", "tensorShape": {"dim": [{"size": "2"}, {"size": "2"}, {"size": "32"}, {"size": "31"}]}}}, "dtype": {"type": "DT_FLOAT"}}}, {"name": "Func/StatefulPartitionedCall/input/_15", "op": "Const", "input": ["^input"], "attr": {"value": {"tensor": {"dtype": "DT_FLOAT", "tensorShape": {"dim": [{"size": "31"}]}}}, "dtype": {"type": "DT_FLOAT"}}}, {"name": "Func/StatefulPartitionedCall/input/_16", "op": "Const", "input": ["^input"], "attr": {"value": {"tensor": {"dtype": "DT_FLOAT", "tensorShape": {"dim": [{"size": "3"}, {"size": "3"}, {"size": "31"}, {"size": "1"}]}}}, "dtype": {"type": "DT_FLOAT"}}}, {"name": "Func/StatefulPartitionedCall/input/_17", "op": "Const", "input": ["^input"], "attr": {"dtype": {"type": "DT_FLOAT"}, "value": {"tensor": {"dtype": "DT_FLOAT", "tensorShape": {"dim": [{"size": "31"}]}}}}}, {"name": "Func/StatefulPartitionedCall/input/_18", "op": "Const", "input": ["^input"], "attr": {"value": {"tensor": {"dtype": "DT_FLOAT", "tensorShape": {"dim": [{"size": "1"}, {"size": "1"}, {"size": "31"}, {"size": "32"}]}}}, "dtype": {"type": "DT_FLOAT"}}}, {"name": "Func/StatefulPartitionedCall/input/_19", "op": "Const", "input": ["^input"], "attr": {"dtype": {"type": "DT_FLOAT"}, "value": {"tensor": {"dtype": "DT_FLOAT", "tensorShape": {"dim": [{"size": "32"}]}}}}}, {"name": "Func/StatefulPartitionedCall/input/_20", "op": "Const", "input": ["^input"], "attr": {"dtype": {"type": "DT_FLOAT"}, "value": {"tensor": {"dtype": "DT_FLOAT", "tensorShape": {"dim": [{"size": "5"}, {"size": "5"}, {"size": "32"}, {"size": "1"}]}}}}}, {"name": "Func/StatefulPartitionedCall/input/_21", "op": "Const", "input": ["^input"], "attr": {"value": {"tensor": {"dtype": "DT_FLOAT", "tensorShape": {"dim": [{"size": "32"}]}}}, "dtype": {"type": "DT_FLOAT"}}}, {"name": "Func/StatefulPartitionedCall/input/_22", "op": "Const", "input": ["^input"], "attr": {"dtype": {"type": "DT_FLOAT"}, "value": {"tensor": {"dtype": "DT_FLOAT", "tensorShape": {"dim": [{"size": "1"}, {"size": "1"}, {"size": "32"}, {"size": "31"}]}}}}}, {"name": "Func/StatefulPartitionedCall/input/_23", "op": "Const", "input": ["^input"], "attr": {"dtype": {"type": "DT_FLOAT"}, "value": {"tensor": {"dtype": "DT_FLOAT", "tensorShape": {"dim": [{"size": "31"}]}}}}}, {"name": "Func/StatefulPartitionedCall/input/_24", "op": "Const", "input": ["^input"], "attr": {"value": {"tensor": {"dtype": "DT_FLOAT", "tensorShape": {"dim": [{"size": "3"}, {"size": "3"}, {"size": "31"}, {"size": "1"}]}}}, "dtype": {"type": "DT_FLOAT"}}}, {"name": "Func/StatefulPartitionedCall/input/_25", "op": "Const", "input": ["^input"], "attr": {"value": {"tensor": {"dtype": "DT_FLOAT", "tensorShape": {"dim": [{"size": "31"}]}}}, "dtype": {"type": "DT_FLOAT"}}}, {"name": "Func/StatefulPartitionedCall/input/_26", "op": "Const", "input": ["^input"], "attr": {"value": {"tensor": {"dtype": "DT_FLOAT", "tensorShape": {"dim": [{"size": "1"}, {"size": "1"}, {"size": "31"}, {"size": "32"}]}}}, "dtype": {"type": "DT_FLOAT"}}}, {"name": "Func/StatefulPartitionedCall/input/_27", "op": "Const", "input": ["^input"], "attr": {"dtype": {"type": "DT_FLOAT"}, "value": {"tensor": {"dtype": "DT_FLOAT", "tensorShape": {"dim": [{"size": "32"}]}}}}}, {"name": "Func/StatefulPartitionedCall/input/_28", "op": "Const", "input": ["^input"], "attr": {"dtype": {"type": "DT_FLOAT"}, "value": {"tensor": {"dtype": "DT_FLOAT", "tensorShape": {"dim": [{"size": "5"}, {"size": "5"}, {"size": "32"}, {"size": "1"}]}}}}}, {"name": "Func/StatefulPartitionedCall/input/_29", "op": "Const", "input": ["^input"], "attr": {"value": {"tensor": {"dtype": "DT_FLOAT", "tensorShape": {"dim": [{"size": "32"}]}}}, "dtype": {"type": "DT_FLOAT"}}}, {"name": "Func/StatefulPartitionedCall/input/_30", "op": "Const", "input": ["^input"], "attr": {"dtype": {"type": "DT_FLOAT"}, "value": {"tensor": {"dtype": "DT_FLOAT", "tensorShape": {"dim": [{"size": "1"}, {"size": "1"}, {"size": "32"}, {"size": "40"}]}}}}}, {"name": "Func/StatefulPartitionedCall/input/_31", "op": "Const", "input": ["^input"], "attr": {"value": {"tensor": {"dtype": "DT_FLOAT", "tensorShape": {"dim": [{"size": "40"}]}}}, "dtype": {"type": "DT_FLOAT"}}}, {"name": "Func/StatefulPartitionedCall/input/_32", "op": "Const", "input": ["^input"], "attr": {"value": {"tensor": {"dtype": "DT_FLOAT", "tensorShape": {"dim": [{"size": "3"}, {"size": "3"}, {"size": "40"}, {"size": "1"}]}}}, "dtype": {"type": "DT_FLOAT"}}}, {"name": "Func/StatefulPartitionedCall/input/_33", "op": "Const", "input": ["^input"], "attr": {"dtype": {"type": "DT_FLOAT"}, "value": {"tensor": {"dtype": "DT_FLOAT", "tensorShape": {"dim": [{"size": "40"}]}}}}}, {"name": "Func/StatefulPartitionedCall/input/_34", "op": "Const", "input": ["^input"], "attr": {"dtype": {"type": "DT_FLOAT"}, "value": {"tensor": {"dtype": "DT_FLOAT", "tensorShape": {"dim": [{"size": "1"}, {"size": "1"}, {"size": "40"}, {"size": "63"}]}}}}}, {"name": "Func/StatefulPartitionedCall/input/_35", "op": "Const", "input": ["^input"], "attr": {"value": {"tensor": {"dtype": "DT_FLOAT", "tensorShape": {"dim": [{"size": "63"}]}}}, "dtype": {"type": "DT_FLOAT"}}}, {"name": "Func/StatefulPartitionedCall/input/_36", "op": "Const", "input": ["^input"], "attr": {"dtype": {"type": "DT_FLOAT"}, "value": {"tensor": {"dtype": "DT_FLOAT", "tensorShape": {"dim": [{"size": "5"}, {"size": "5"}, {"size": "63"}, {"size": "1"}]}}}}}, {"name": "Func/StatefulPartitionedCall/input/_37", "op": "Const", "input": ["^input"], "attr": {"value": {"tensor": {"dtype": "DT_FLOAT", "tensorShape": {"dim": [{"size": "63"}]}}}, "dtype": {"type": "DT_FLOAT"}}}, {"name": "Func/StatefulPartitionedCall/input/_38", "op": "Const", "input": ["^input"], "attr": {"dtype": {"type": "DT_FLOAT"}, "value": {"tensor": {"dtype": "DT_FLOAT", "tensorShape": {"dim": [{"size": "1"}, {"size": "1"}, {"size": "63"}, {"size": "40"}]}}}}}, {"name": "Func/StatefulPartitionedCall/input/_39", "op": "Const", "input": ["^input"], "attr": {"value": {"tensor": {"dtype": "DT_FLOAT", "tensorShape": {"dim": [{"size": "40"}]}}}, "dtype": {"type": "DT_FLOAT"}}}, {"name": "Func/StatefulPartitionedCall/input/_40", "op": "Const", "input": ["^input"], "attr": {"value": {"tensor": {"dtype": "DT_FLOAT", "tensorShape": {"dim": [{"size": "3"}, {"size": "3"}, {"size": "40"}, {"size": "1"}]}}}, "dtype": {"type": "DT_FLOAT"}}}, {"name": "Func/StatefulPartitionedCall/input/_41", "op": "Const", "input": ["^input"], "attr": {"value": {"tensor": {"dtype": "DT_FLOAT", "tensorShape": {"dim": [{"size": "40"}]}}}, "dtype": {"type": "DT_FLOAT"}}}, {"name": "Func/StatefulPartitionedCall/input/_42", "op": "Const", "input": ["^input"], "attr": {"dtype": {"type": "DT_FLOAT"}, "value": {"tensor": {"dtype": "DT_FLOAT", "tensorShape": {"dim": [{"size": "1"}, {"size": "1"}, {"size": "40"}, {"size": "64"}]}}}}}, {"name": "Func/StatefulPartitionedCall/input/_43", "op": "Const", "input": ["^input"], "attr": {"value": {"tensor": {"dtype": "DT_FLOAT", "tensorShape": {"dim": [{"size": "64"}]}}}, "dtype": {"type": "DT_FLOAT"}}}, {"name": "Func/StatefulPartitionedCall/input/_44", "op": "Const", "input": ["^input"], "attr": {"value": {"tensor": {"dtype": "DT_FLOAT", "tensorShape": {"dim": [{"size": "5"}, {"size": "5"}, {"size": "64"}, {"size": "1"}]}}}, "dtype": {"type": "DT_FLOAT"}}}, {"name": "Func/StatefulPartitionedCall/input/_45", "op": "Const", "input": ["^input"], "attr": {"dtype": {"type": "DT_FLOAT"}, "value": {"tensor": {"dtype": "DT_FLOAT", "tensorShape": {"dim": [{"size": "64"}]}}}}}, {"name": "Func/StatefulPartitionedCall/input/_46", "op": "Const", "input": ["^input"], "attr": {"value": {"tensor": {"dtype": "DT_FLOAT", "tensorShape": {"dim": [{"size": "1"}, {"size": "1"}, {"size": "64"}, {"size": "40"}]}}}, "dtype": {"type": "DT_FLOAT"}}}, {"name": "Func/StatefulPartitionedCall/input/_47", "op": "Const", "input": ["^input"], "attr": {"value": {"tensor": {"dtype": "DT_FLOAT", "tensorShape": {"dim": [{"size": "40"}]}}}, "dtype": {"type": "DT_FLOAT"}}}, {"name": "Func/StatefulPartitionedCall/input/_48", "op": "Const", "input": ["^input"], "attr": {"dtype": {"type": "DT_FLOAT"}, "value": {"tensor": {"dtype": "DT_FLOAT", "tensorShape": {"dim": [{"size": "3"}, {"size": "3"}, {"size": "40"}, {"size": "1"}]}}}}}, {"name": "Func/StatefulPartitionedCall/input/_49", "op": "Const", "input": ["^input"], "attr": {"value": {"tensor": {"dtype": "DT_FLOAT", "tensorShape": {"dim": [{"size": "40"}]}}}, "dtype": {"type": "DT_FLOAT"}}}, {"name": "Func/StatefulPartitionedCall/input/_50", "op": "Const", "input": ["^input"], "attr": {"value": {"tensor": {"dtype": "DT_FLOAT", "tensorShape": {"dim": [{"size": "1"}, {"size": "1"}, {"size": "40"}, {"size": "62"}]}}}, "dtype": {"type": "DT_FLOAT"}}}, {"name": "Func/StatefulPartitionedCall/input/_51", "op": "Const", "input": ["^input"], "attr": {"value": {"tensor": {"dtype": "DT_FLOAT", "tensorShape": {"dim": [{"size": "62"}]}}}, "dtype": {"type": "DT_FLOAT"}}}, {"name": "Func/StatefulPartitionedCall/input/_52", "op": "Const", "input": ["^input"], "attr": {"value": {"tensor": {"dtype": "DT_FLOAT", "tensorShape": {"dim": [{"size": "5"}, {"size": "5"}, {"size": "62"}, {"size": "1"}]}}}, "dtype": {"type": "DT_FLOAT"}}}, {"name": "Func/StatefulPartitionedCall/input/_53", "op": "Const", "input": ["^input"], "attr": {"value": {"tensor": {"dtype": "DT_FLOAT", "tensorShape": {"dim": [{"size": "62"}]}}}, "dtype": {"type": "DT_FLOAT"}}}, {"name": "Func/StatefulPartitionedCall/input/_54", "op": "Const", "input": ["^input"], "attr": {"value": {"tensor": {"dtype": "DT_FLOAT", "tensorShape": {"dim": [{"size": "1"}, {"size": "1"}, {"size": "62"}, {"size": "40"}]}}}, "dtype": {"type": "DT_FLOAT"}}}, {"name": "Func/StatefulPartitionedCall/input/_55", "op": "Const", "input": ["^input"], "attr": {"value": {"tensor": {"dtype": "DT_FLOAT", "tensorShape": {"dim": [{"size": "40"}]}}}, "dtype": {"type": "DT_FLOAT"}}}, {"name": "Func/StatefulPartitionedCall/input/_56", "op": "Const", "input": ["^input"], "attr": {"value": {"tensor": {"dtype": "DT_FLOAT", "tensorShape": {"dim": [{"size": "3"}, {"size": "3"}, {"size": "40"}, {"size": "1"}]}}}, "dtype": {"type": "DT_FLOAT"}}}, {"name": "Func/StatefulPartitionedCall/input/_57", "op": "Const", "input": ["^input"], "attr": {"dtype": {"type": "DT_FLOAT"}, "value": {"tensor": {"dtype": "DT_FLOAT", "tensorShape": {"dim": [{"size": "40"}]}}}}}, {"name": "Func/StatefulPartitionedCall/input/_58", "op": "Const", "input": ["^input"], "attr": {"dtype": {"type": "DT_FLOAT"}, "value": {"tensor": {"dtype": "DT_FLOAT", "tensorShape": {"dim": [{"size": "1"}, {"size": "1"}, {"size": "40"}, {"size": "62"}]}}}}}, {"name": "Func/StatefulPartitionedCall/input/_59", "op": "Const", "input": ["^input"], "attr": {"dtype": {"type": "DT_FLOAT"}, "value": {"tensor": {"dtype": "DT_FLOAT", "tensorShape": {"dim": [{"size": "62"}]}}}}}, {"name": "Func/StatefulPartitionedCall/input/_60", "op": "Const", "input": ["^input"], "attr": {"value": {"tensor": {"dtype": "DT_FLOAT", "tensorShape": {"dim": [{"size": "5"}, {"size": "5"}, {"size": "62"}, {"size": "1"}]}}}, "dtype": {"type": "DT_FLOAT"}}}, {"name": "Func/StatefulPartitionedCall/input/_61", "op": "Const", "input": ["^input"], "attr": {"dtype": {"type": "DT_FLOAT"}, "value": {"tensor": {"dtype": "DT_FLOAT", "tensorShape": {"dim": [{"size": "62"}]}}}}}, {"name": "Func/StatefulPartitionedCall/input/_62", "op": "Const", "input": ["^input"], "attr": {"value": {"tensor": {"dtype": "DT_FLOAT", "tensorShape": {"dim": [{"size": "1"}, {"size": "1"}, {"size": "62"}, {"size": "40"}]}}}, "dtype": {"type": "DT_FLOAT"}}}, {"name": "Func/StatefulPartitionedCall/input/_63", "op": "Const", "input": ["^input"], "attr": {"value": {"tensor": {"dtype": "DT_FLOAT", "tensorShape": {"dim": [{"size": "40"}]}}}, "dtype": {"type": "DT_FLOAT"}}}, {"name": "Func/StatefulPartitionedCall/input/_64", "op": "Const", "input": ["^input"], "attr": {"value": {"tensor": {"dtype": "DT_FLOAT", "tensorShape": {"dim": [{"size": "3"}, {"size": "3"}, {"size": "40"}, {"size": "1"}]}}}, "dtype": {"type": "DT_FLOAT"}}}, {"name": "Func/StatefulPartitionedCall/input/_65", "op": "Const", "input": ["^input"], "attr": {"value": {"tensor": {"dtype": "DT_FLOAT", "tensorShape": {"dim": [{"size": "40"}]}}}, "dtype": {"type": "DT_FLOAT"}}}, {"name": "Func/StatefulPartitionedCall/input/_66", "op": "Const", "input": ["^input"], "attr": {"dtype": {"type": "DT_FLOAT"}, "value": {"tensor": {"dtype": "DT_FLOAT", "tensorShape": {"dim": [{"size": "1"}, {"size": "1"}, {"size": "40"}, {"size": "64"}]}}}}}, {"name": "Func/StatefulPartitionedCall/input/_67", "op": "Const", "input": ["^input"], "attr": {"dtype": {"type": "DT_FLOAT"}, "value": {"tensor": {"dtype": "DT_FLOAT", "tensorShape": {"dim": [{"size": "64"}]}}}}}, {"name": "Func/StatefulPartitionedCall/input/_68", "op": "Const", "input": ["^input"], "attr": {"value": {"tensor": {"dtype": "DT_FLOAT", "tensorShape": {"dim": [{"size": "5"}, {"size": "5"}, {"size": "64"}, {"size": "1"}]}}}, "dtype": {"type": "DT_FLOAT"}}}, {"name": "Func/StatefulPartitionedCall/input/_69", "op": "Const", "input": ["^input"], "attr": {"dtype": {"type": "DT_FLOAT"}, "value": {"tensor": {"dtype": "DT_FLOAT", "tensorShape": {"dim": [{"size": "64"}]}}}}}, {"name": "Func/StatefulPartitionedCall/input/_70", "op": "Const", "input": ["^input"], "attr": {"dtype": {"type": "DT_FLOAT"}, "value": {"tensor": {"dtype": "DT_FLOAT", "tensorShape": {"dim": [{"size": "1"}, {"size": "1"}, {"size": "64"}, {"size": "40"}]}}}}}, {"name": "Func/StatefulPartitionedCall/input/_71", "op": "Const", "input": ["^input"], "attr": {"dtype": {"type": "DT_FLOAT"}, "value": {"tensor": {"dtype": "DT_FLOAT", "tensorShape": {"dim": [{"size": "40"}]}}}}}, {"name": "StatefulPartitionedCall/model/399_pad/Pad/paddings", "op": "Const", "input": ["^input"], "attr": {"dtype": {"type": "DT_INT32"}, "value": {"tensor": {"dtype": "DT_INT32", "tensorShape": {"dim": [{"size": "4"}, {"size": "2"}]}}}}}, {"name": "Func/StatefulPartitionedCall/input/_72", "op": "Const", "input": ["^input"], "attr": {"value": {"tensor": {"dtype": "DT_FLOAT", "tensorShape": {"dim": [{"size": "3"}, {"size": "3"}, {"size": "40"}, {"size": "1"}]}}}, "dtype": {"type": "DT_FLOAT"}}}, {"name": "Func/StatefulPartitionedCall/input/_73", "op": "Const", "input": ["^input"], "attr": {"value": {"tensor": {"dtype": "DT_FLOAT", "tensorShape": {"dim": [{"size": "40"}]}}}, "dtype": {"type": "DT_FLOAT"}}}, {"name": "Func/StatefulPartitionedCall/input/_74", "op": "Const", "input": ["^input"], "attr": {"dtype": {"type": "DT_FLOAT"}, "value": {"tensor": {"dtype": "DT_FLOAT", "tensorShape": {"dim": [{"size": "1"}, {"size": "1"}, {"size": "40"}, {"size": "54"}]}}}}}, {"name": "Func/StatefulPartitionedCall/input/_75", "op": "Const", "input": ["^input"], "attr": {"dtype": {"type": "DT_FLOAT"}, "value": {"tensor": {"dtype": "DT_FLOAT", "tensorShape": {"dim": [{"size": "54"}]}}}}}, {"name": "StatefulPartitionedCall/model/405_pad/Pad/paddings", "op": "Const", "input": ["^input"], "attr": {"dtype": {"type": "DT_INT32"}, "value": {"tensor": {"dtype": "DT_INT32", "tensorShape": {"dim": [{"size": "4"}, {"size": "2"}]}}}}}, {"name": "Func/StatefulPartitionedCall/input/_78", "op": "Const", "input": ["^input"], "attr": {"value": {"tensor": {"dtype": "DT_FLOAT", "tensorShape": {"dim": [{"size": "1"}, {"size": "1"}, {"size": "54"}, {"size": "40"}]}}}, "dtype": {"type": "DT_FLOAT"}}}, {"name": "Func/StatefulPartitionedCall/input/_79", "op": "Const", "input": ["^input"], "attr": {"value": {"tensor": {"dtype": "DT_FLOAT", "tensorShape": {"dim": [{"size": "40"}]}}}, "dtype": {"type": "DT_FLOAT"}}}, {"name": "Func/StatefulPartitionedCall/input/_80", "op": "Const", "input": ["^input"], "attr": {"value": {"tensor": {"dtype": "DT_FLOAT", "tensorShape": {"dim": [{"size": "1"}, {"size": "1"}, {"size": "40"}, {"size": "1"}]}}}, "dtype": {"type": "DT_FLOAT"}}}, {"name": "Func/StatefulPartitionedCall/input/_81", "op": "Const", "input": ["^input"], "attr": {"value": {"tensor": {"dtype": "DT_FLOAT", "tensorShape": {"dim": [{"size": "1"}]}}}, "dtype": {"type": "DT_FLOAT"}}}, {"name": "StatefulPartitionedCall/model/394_crop/strided_slice/stack", "op": "Const", "input": ["^input"], "attr": {"value": {"tensor": {"dtype": "DT_INT32", "tensorShape": {"dim": [{"size": "4"}]}}}, "dtype": {"type": "DT_INT32"}}}, {"name": "StatefulPartitionedCall/model/394_crop/strided_slice/stack_1", "op": "Const", "input": ["^input"], "attr": {"dtype": {"type": "DT_INT32"}, "value": {"tensor": {"dtype": "DT_INT32", "tensorShape": {"dim": [{"size": "4"}]}}}}}, {"name": "StatefulPartitionedCall/model/394_crop/strided_slice/stack_2", "op": "Const", "input": ["^input"], "attr": {"value": {"tensor": {"dtype": "DT_INT32", "tensorShape": {"dim": [{"size": "4"}]}}}, "dtype": {"type": "DT_INT32"}}}, {"name": "Func/StatefulPartitionedCall/input/_76", "op": "Const", "input": ["^input"], "attr": {"dtype": {"type": "DT_FLOAT"}, "value": {"tensor": {"dtype": "DT_FLOAT", "tensorShape": {"dim": [{"size": "5"}, {"size": "5"}, {"size": "54"}, {"size": "1"}]}}}}}, {"name": "StatefulPartitionedCall/model/272/BiasAdd", "op": "_FusedConv2D", "input": ["input", "Func/StatefulPartitionedCall/input/_2", "Func/StatefulPartitionedCall/input/_3"], "device": "/device:CPU:0", "attr": {"padding": {"s": "VkFMSUQ="}, "data_format": {"s": "TkhXQw=="}, "dilations": {"list": {"i": ["1", "1", "1", "1"]}}, "num_args": {"i": "1"}, "strides": {"list": {"i": ["1", "1", "1", "1"]}}, "use_cudnn_on_gpu": {"b": true}, "T": {"type": "DT_FLOAT"}, "epsilon": {"f": 0.0}, "explicit_paddings": {"list": {}}, "fused_ops": {"list": {"s": ["Qmlhc0FkZA=="]}}}}, {"name": "StatefulPartitionedCall/model/396/BiasAdd", "op": "_FusedConv2D", "input": ["StatefulPartitionedCall/model/272/BiasAdd", "Func/StatefulPartitionedCall/input/_4", "Func/StatefulPartitionedCall/input/_5"], "device": "/device:CPU:0", "attr": {"epsilon": {"f": 0.0}, "fused_ops": {"list": {"s": ["Qmlhc0FkZA=="]}}, "strides": {"list": {"i": ["1", "4", "4", "1"]}}, "use_cudnn_on_gpu": {"b": true}, "num_args": {"i": "1"}, "dilations": {"list": {"i": ["1", "1", "1", "1"]}}, "data_format": {"s": "TkhXQw=="}, "explicit_paddings": {"list": {}}, "T": {"type": "DT_FLOAT"}, "padding": {"s": "VkFMSUQ="}}}, {"name": "StatefulPartitionedCall/model/399_pad/Pad", "op": "Pad", "input": ["StatefulPartitionedCall/model/396/BiasAdd", "StatefulPartitionedCall/model/399_pad/Pad/paddings"], "attr": {"Tpaddings": {"type": "DT_INT32"}, "T": {"type": "DT_FLOAT"}}}, {"name": "StatefulPartitionedCall/model/399/depthwise", "op": "FusedDepthwiseConv2dNative", "input": ["StatefulPartitionedCall/model/399_pad/Pad", "Func/StatefulPartitionedCall/input/_6", "Func/StatefulPartitionedCall/input/_7"], "attr": {"padding": {"s": "VkFMSUQ="}, "T": {"type": "DT_FLOAT"}, "data_format": {"s": "TkhXQw=="}, "num_args": {"i": "1"}, "dilations": {"list": {"i": ["1", "1", "1", "1"]}}, "strides": {"list": {"i": ["1", "1", "1", "1"]}}, "fused_ops": {"list": {"s": ["Qmlhc0FkZA==", "UmVsdQ=="]}}}}, {"name": "StatefulPartitionedCall/model/280/Relu", "op": "_FusedConv2D", "input": ["StatefulPartitionedCall/model/399/depthwise", "Func/StatefulPartitionedCall/input/_8", "Func/StatefulPartitionedCall/input/_9"], "device": "/device:CPU:0", "attr": {"num_args": {"i": "1"}, "strides": {"list": {"i": ["1", "1", "1", "1"]}}, "data_format": {"s": "TkhXQw=="}, "explicit_paddings": {"list": {}}, "fused_ops": {"list": {"s": ["Qmlhc0FkZA==", "UmVsdQ=="]}}, "epsilon": {"f": 0.0}, "use_cudnn_on_gpu": {"b": true}, "padding": {"s": "VkFMSUQ="}, "T": {"type": "DT_FLOAT"}, "dilations": {"list": {"i": ["1", "1", "1", "1"]}}}}, {"name": "StatefulPartitionedCall/model/405_pad/Pad", "op": "Pad", "input": ["StatefulPartitionedCall/model/280/Relu", "StatefulPartitionedCall/model/405_pad/Pad/paddings"], "attr": {"T": {"type": "DT_FLOAT"}, "Tpaddings": {"type": "DT_INT32"}}}, {"name": "StatefulPartitionedCall/model/405/depthwise", "op": "FusedDepthwiseConv2dNative", "input": ["StatefulPartitionedCall/model/405_pad/Pad", "Func/StatefulPartitionedCall/input/_10", "Func/StatefulPartitionedCall/input/_11"], "attr": {"data_format": {"s": "TkhXQw=="}, "num_args": {"i": "1"}, "dilations": {"list": {"i": ["1", "1", "1", "1"]}}, "fused_ops": {"list": {"s": ["Qmlhc0FkZA==", "UmVsdQ=="]}}, "T": {"type": "DT_FLOAT"}, "strides": {"list": {"i": ["1", "1", "1", "1"]}}, "padding": {"s": "VkFMSUQ="}}}, {"name": "StatefulPartitionedCall/model/408/BiasAdd", "op": "_FusedConv2D", "input": ["StatefulPartitionedCall/model/405/depthwise", "Func/StatefulPartitionedCall/input/_12", "Func/StatefulPartitionedCall/input/_13"], "device": "/device:CPU:0", "attr": {"fused_ops": {"list": {"s": ["Qmlhc0FkZA=="]}}, "padding": {"s": "VkFMSUQ="}, "dilations": {"list": {"i": ["1", "1", "1", "1"]}}, "data_format": {"s": "TkhXQw=="}, "explicit_paddings": {"list": {}}, "use_cudnn_on_gpu": {"b": true}, "num_args": {"i": "1"}, "strides": {"list": {"i": ["1", "1", "1", "1"]}}, "epsilon": {"f": 0.0}, "T": {"type": "DT_FLOAT"}}}, {"name": "StatefulPartitionedCall/model/286/add", "op": "AddV2", "input": ["StatefulPartitionedCall/model/396/BiasAdd", "StatefulPartitionedCall/model/408/BiasAdd"], "attr": {"T": {"type": "DT_FLOAT"}}}, {"name": "StatefulPartitionedCall/model/287/Relu", "op": "Relu", "input": ["StatefulPartitionedCall/model/286/add"], "attr": {"T": {"type": "DT_FLOAT"}}}, {"name": "StatefulPartitionedCall/model/411/BiasAdd", "op": "_FusedConv2D", "input": ["StatefulPartitionedCall/model/287/Relu", "Func/StatefulPartitionedCall/input/_14", "Func/StatefulPartitionedCall/input/_15"], "device": "/device:CPU:0", "attr": {"dilations": {"list": {"i": ["1", "1", "1", "1"]}}, "padding": {"s": "VkFMSUQ="}, "fused_ops": {"list": {"s": ["Qmlhc0FkZA=="]}}, "use_cudnn_on_gpu": {"b": true}, "explicit_paddings": {"list": {}}, "T": {"type": "DT_FLOAT"}, "num_args": {"i": "1"}, "data_format": {"s": "TkhXQw=="}, "epsilon": {"f": 0.0}, "strides": {"list": {"i": ["1", "2", "2", "1"]}}}}, {"name": "StatefulPartitionedCall/model/414_pad/Pad", "op": "Pad", "input": ["StatefulPartitionedCall/model/411/BiasAdd", "StatefulPartitionedCall/model/399_pad/Pad/paddings"], "attr": {"Tpaddings": {"type": "DT_INT32"}, "T": {"type": "DT_FLOAT"}}}, {"name": "StatefulPartitionedCall/model/414/depthwise", "op": "FusedDepthwiseConv2dNative", "input": ["StatefulPartitionedCall/model/414_pad/Pad", "Func/StatefulPartitionedCall/input/_16", "Func/StatefulPartitionedCall/input/_17"], "attr": {"T": {"type": "DT_FLOAT"}, "dilations": {"list": {"i": ["1", "1", "1", "1"]}}, "data_format": {"s": "TkhXQw=="}, "strides": {"list": {"i": ["1", "1", "1", "1"]}}, "padding": {"s": "VkFMSUQ="}, "fused_ops": {"list": {"s": ["Qmlhc0FkZA==", "UmVsdQ=="]}}, "num_args": {"i": "1"}}}, {"name": "StatefulPartitionedCall/model/295/Relu", "op": "_FusedConv2D", "input": ["StatefulPartitionedCall/model/414/depthwise", "Func/StatefulPartitionedCall/input/_18", "Func/StatefulPartitionedCall/input/_19"], "device": "/device:CPU:0", "attr": {"num_args": {"i": "1"}, "explicit_paddings": {"list": {}}, "T": {"type": "DT_FLOAT"}, "padding": {"s": "VkFMSUQ="}, "epsilon": {"f": 0.0}, "fused_ops": {"list": {"s": ["Qmlhc0FkZA==", "UmVsdQ=="]}}, "data_format": {"s": "TkhXQw=="}, "strides": {"list": {"i": ["1", "1", "1", "1"]}}, "use_cudnn_on_gpu": {"b": true}, "dilations": {"list": {"i": ["1", "1", "1", "1"]}}}}, {"name": "StatefulPartitionedCall/model/420_pad/Pad", "op": "Pad", "input": ["StatefulPartitionedCall/model/295/Relu", "StatefulPartitionedCall/model/405_pad/Pad/paddings"], "attr": {"Tpaddings": {"type": "DT_INT32"}, "T": {"type": "DT_FLOAT"}}}, {"name": "StatefulPartitionedCall/model/420/depthwise", "op": "FusedDepthwiseConv2dNative", "input": ["StatefulPartitionedCall/model/420_pad/Pad", "Func/StatefulPartitionedCall/input/_20", "Func/StatefulPartitionedCall/input/_21"], "attr": {"data_format": {"s": "TkhXQw=="}, "strides": {"list": {"i": ["1", "1", "1", "1"]}}, "dilations": {"list": {"i": ["1", "1", "1", "1"]}}, "T": {"type": "DT_FLOAT"}, "num_args": {"i": "1"}, "padding": {"s": "VkFMSUQ="}, "fused_ops": {"list": {"s": ["Qmlhc0FkZA==", "UmVsdQ=="]}}}}, {"name": "StatefulPartitionedCall/model/423/BiasAdd", "op": "_FusedConv2D", "input": ["StatefulPartitionedCall/model/420/depthwise", "Func/StatefulPartitionedCall/input/_22", "Func/StatefulPartitionedCall/input/_23"], "device": "/device:CPU:0", "attr": {"explicit_paddings": {"list": {}}, "num_args": {"i": "1"}, "strides": {"list": {"i": ["1", "1", "1", "1"]}}, "use_cudnn_on_gpu": {"b": true}, "dilations": {"list": {"i": ["1", "1", "1", "1"]}}, "fused_ops": {"list": {"s": ["Qmlhc0FkZA=="]}}, "T": {"type": "DT_FLOAT"}, "data_format": {"s": "TkhXQw=="}, "padding": {"s": "VkFMSUQ="}, "epsilon": {"f": 0.0}}}, {"name": "StatefulPartitionedCall/model/301/add", "op": "AddV2", "input": ["StatefulPartitionedCall/model/411/BiasAdd", "StatefulPartitionedCall/model/423/BiasAdd"], "attr": {"T": {"type": "DT_FLOAT"}}}, {"name": "StatefulPartitionedCall/model/302/Relu", "op": "Relu", "input": ["StatefulPartitionedCall/model/301/add"], "attr": {"T": {"type": "DT_FLOAT"}}}, {"name": "StatefulPartitionedCall/model/426_pad/Pad", "op": "Pad", "input": ["StatefulPartitionedCall/model/302/Relu", "StatefulPartitionedCall/model/399_pad/Pad/paddings"], "attr": {"Tpaddings": {"type": "DT_INT32"}, "T": {"type": "DT_FLOAT"}}}, {"name": "StatefulPartitionedCall/model/426/depthwise", "op": "FusedDepthwiseConv2dNative", "input": ["StatefulPartitionedCall/model/426_pad/Pad", "Func/StatefulPartitionedCall/input/_24", "Func/StatefulPartitionedCall/input/_25"], "attr": {"dilations": {"list": {"i": ["1", "1", "1", "1"]}}, "strides": {"list": {"i": ["1", "1", "1", "1"]}}, "fused_ops": {"list": {"s": ["Qmlhc0FkZA==", "UmVsdQ=="]}}, "T": {"type": "DT_FLOAT"}, "padding": {"s": "VkFMSUQ="}, "data_format": {"s": "TkhXQw=="}, "num_args": {"i": "1"}}}, {"name": "StatefulPartitionedCall/model/308/Relu", "op": "_FusedConv2D", "input": ["StatefulPartitionedCall/model/426/depthwise", "Func/StatefulPartitionedCall/input/_26", "Func/StatefulPartitionedCall/input/_27"], "device": "/device:CPU:0", "attr": {"fused_ops": {"list": {"s": ["Qmlhc0FkZA==", "UmVsdQ=="]}}, "padding": {"s": "VkFMSUQ="}, "explicit_paddings": {"list": {}}, "epsilon": {"f": 0.0}, "use_cudnn_on_gpu": {"b": true}, "dilations": {"list": {"i": ["1", "1", "1", "1"]}}, "strides": {"list": {"i": ["1", "1", "1", "1"]}}, "num_args": {"i": "1"}, "T": {"type": "DT_FLOAT"}, "data_format": {"s": "TkhXQw=="}}}, {"name": "StatefulPartitionedCall/model/432_pad/Pad", "op": "Pad", "input": ["StatefulPartitionedCall/model/308/Relu", "StatefulPartitionedCall/model/405_pad/Pad/paddings"], "attr": {"Tpaddings": {"type": "DT_INT32"}, "T": {"type": "DT_FLOAT"}}}, {"name": "StatefulPartitionedCall/model/432/depthwise", "op": "FusedDepthwiseConv2dNative", "input": ["StatefulPartitionedCall/model/432_pad/Pad", "Func/StatefulPartitionedCall/input/_28", "Func/StatefulPartitionedCall/input/_29"], "attr": {"padding": {"s": "VkFMSUQ="}, "dilations": {"list": {"i": ["1", "1", "1", "1"]}}, "T": {"type": "DT_FLOAT"}, "num_args": {"i": "1"}, "fused_ops": {"list": {"s": ["Qmlhc0FkZA==", "UmVsdQ=="]}}, "strides": {"list": {"i": ["1", "1", "1", "1"]}}, "data_format": {"s": "TkhXQw=="}}}, {"name": "StatefulPartitionedCall/model/314/Relu", "op": "_FusedConv2D", "input": ["StatefulPartitionedCall/model/432/depthwise", "Func/StatefulPartitionedCall/input/_30", "Func/StatefulPartitionedCall/input/_31"], "device": "/device:CPU:0", "attr": {"fused_ops": {"list": {"s": ["Qmlhc0FkZA==", "UmVsdQ=="]}}, "use_cudnn_on_gpu": {"b": true}, "strides": {"list": {"i": ["1", "1", "1", "1"]}}, "num_args": {"i": "1"}, "dilations": {"list": {"i": ["1", "1", "1", "1"]}}, "padding": {"s": "VkFMSUQ="}, "epsilon": {"f": 0.0}, "T": {"type": "DT_FLOAT"}, "data_format": {"s": "TkhXQw=="}, "explicit_paddings": {"list": {}}}}, {"name": "StatefulPartitionedCall/model/438_pad/Pad", "op": "Pad", "input": ["StatefulPartitionedCall/model/314/Relu", "StatefulPartitionedCall/model/399_pad/Pad/paddings"], "attr": {"Tpaddings": {"type": "DT_INT32"}, "T": {"type": "DT_FLOAT"}}}, {"name": "StatefulPartitionedCall/model/438/depthwise", "op": "FusedDepthwiseConv2dNative", "input": ["StatefulPartitionedCall/model/438_pad/Pad", "Func/StatefulPartitionedCall/input/_32", "Func/StatefulPartitionedCall/input/_33"], "attr": {"T": {"type": "DT_FLOAT"}, "data_format": {"s": "TkhXQw=="}, "fused_ops": {"list": {"s": ["Qmlhc0FkZA==", "UmVsdQ=="]}}, "padding": {"s": "VkFMSUQ="}, "num_args": {"i": "1"}, "strides": {"list": {"i": ["1", "1", "1", "1"]}}, "dilations": {"list": {"i": ["1", "1", "1", "1"]}}}}, {"name": "StatefulPartitionedCall/model/320/Relu", "op": "_FusedConv2D", "input": ["StatefulPartitionedCall/model/438/depthwise", "Func/StatefulPartitionedCall/input/_34", "Func/StatefulPartitionedCall/input/_35"], "device": "/device:CPU:0", "attr": {"dilations": {"list": {"i": ["1", "1", "1", "1"]}}, "explicit_paddings": {"list": {}}, "data_format": {"s": "TkhXQw=="}, "strides": {"list": {"i": ["1", "1", "1", "1"]}}, "T": {"type": "DT_FLOAT"}, "num_args": {"i": "1"}, "use_cudnn_on_gpu": {"b": true}, "fused_ops": {"list": {"s": ["Qmlhc0FkZA==", "UmVsdQ=="]}}, "padding": {"s": "VkFMSUQ="}, "epsilon": {"f": 0.0}}}, {"name": "StatefulPartitionedCall/model/444_pad/Pad", "op": "Pad", "input": ["StatefulPartitionedCall/model/320/Relu", "StatefulPartitionedCall/model/405_pad/Pad/paddings"], "attr": {"T": {"type": "DT_FLOAT"}, "Tpaddings": {"type": "DT_INT32"}}}, {"name": "StatefulPartitionedCall/model/444/depthwise", "op": "FusedDepthwiseConv2dNative", "input": ["StatefulPartitionedCall/model/444_pad/Pad", "Func/StatefulPartitionedCall/input/_36", "Func/StatefulPartitionedCall/input/_37"], "attr": {"dilations": {"list": {"i": ["1", "1", "1", "1"]}}, "padding": {"s": "VkFMSUQ="}, "num_args": {"i": "1"}, "data_format": {"s": "TkhXQw=="}, "T": {"type": "DT_FLOAT"}, "strides": {"list": {"i": ["1", "1", "1", "1"]}}, "fused_ops": {"list": {"s": ["Qmlhc0FkZA==", "UmVsdQ=="]}}}}, {"name": "StatefulPartitionedCall/model/447/BiasAdd", "op": "_FusedConv2D", "input": ["StatefulPartitionedCall/model/444/depthwise", "Func/StatefulPartitionedCall/input/_38", "Func/StatefulPartitionedCall/input/_39"], "device": "/device:CPU:0", "attr": {"fused_ops": {"list": {"s": ["Qmlhc0FkZA=="]}}, "strides": {"list": {"i": ["1", "1", "1", "1"]}}, "T": {"type": "DT_FLOAT"}, "epsilon": {"f": 0.0}, "padding": {"s": "VkFMSUQ="}, "use_cudnn_on_gpu": {"b": true}, "explicit_paddings": {"list": {}}, "data_format": {"s": "TkhXQw=="}, "num_args": {"i": "1"}, "dilations": {"list": {"i": ["1", "1", "1", "1"]}}}}, {"name": "StatefulPartitionedCall/model/326/add", "op": "AddV2", "input": ["StatefulPartitionedCall/model/314/Relu", "StatefulPartitionedCall/model/447/BiasAdd"], "attr": {"T": {"type": "DT_FLOAT"}}}, {"name": "StatefulPartitionedCall/model/327/Relu", "op": "Relu", "input": ["StatefulPartitionedCall/model/326/add"], "attr": {"T": {"type": "DT_FLOAT"}}}, {"name": "StatefulPartitionedCall/model/450_pad/Pad", "op": "Pad", "input": ["StatefulPartitionedCall/model/327/Relu", "StatefulPartitionedCall/model/399_pad/Pad/paddings"], "attr": {"T": {"type": "DT_FLOAT"}, "Tpaddings": {"type": "DT_INT32"}}}, {"name": "StatefulPartitionedCall/model/450/depthwise", "op": "FusedDepthwiseConv2dNative", "input": ["StatefulPartitionedCall/model/450_pad/Pad", "Func/StatefulPartitionedCall/input/_40", "Func/StatefulPartitionedCall/input/_41"], "attr": {"dilations": {"list": {"i": ["1", "1", "1", "1"]}}, "num_args": {"i": "1"}, "data_format": {"s": "TkhXQw=="}, "strides": {"list": {"i": ["1", "1", "1", "1"]}}, "padding": {"s": "VkFMSUQ="}, "fused_ops": {"list": {"s": ["Qmlhc0FkZA==", "UmVsdQ=="]}}, "T": {"type": "DT_FLOAT"}}}, {"name": "StatefulPartitionedCall/model/333/Relu", "op": "_FusedConv2D", "input": ["StatefulPartitionedCall/model/450/depthwise", "Func/StatefulPartitionedCall/input/_42", "Func/StatefulPartitionedCall/input/_43"], "device": "/device:CPU:0", "attr": {"num_args": {"i": "1"}, "strides": {"list": {"i": ["1", "1", "1", "1"]}}, "padding": {"s": "VkFMSUQ="}, "T": {"type": "DT_FLOAT"}, "dilations": {"list": {"i": ["1", "1", "1", "1"]}}, "data_format": {"s": "TkhXQw=="}, "epsilon": {"f": 0.0}, "use_cudnn_on_gpu": {"b": true}, "explicit_paddings": {"list": {}}, "fused_ops": {"list": {"s": ["Qmlhc0FkZA==", "UmVsdQ=="]}}}}, {"name": "StatefulPartitionedCall/model/456_pad/Pad", "op": "Pad", "input": ["StatefulPartitionedCall/model/333/Relu", "StatefulPartitionedCall/model/405_pad/Pad/paddings"], "attr": {"T": {"type": "DT_FLOAT"}, "Tpaddings": {"type": "DT_INT32"}}}, {"name": "StatefulPartitionedCall/model/456/depthwise", "op": "FusedDepthwiseConv2dNative", "input": ["StatefulPartitionedCall/model/456_pad/Pad", "Func/StatefulPartitionedCall/input/_44", "Func/StatefulPartitionedCall/input/_45"], "attr": {"strides": {"list": {"i": ["1", "1", "1", "1"]}}, "num_args": {"i": "1"}, "T": {"type": "DT_FLOAT"}, "padding": {"s": "VkFMSUQ="}, "dilations": {"list": {"i": ["1", "1", "1", "1"]}}, "fused_ops": {"list": {"s": ["Qmlhc0FkZA==", "UmVsdQ=="]}}, "data_format": {"s": "TkhXQw=="}}}, {"name": "StatefulPartitionedCall/model/459/BiasAdd", "op": "_FusedConv2D", "input": ["StatefulPartitionedCall/model/456/depthwise", "Func/StatefulPartitionedCall/input/_46", "Func/StatefulPartitionedCall/input/_47"], "device": "/device:CPU:0", "attr": {"fused_ops": {"list": {"s": ["Qmlhc0FkZA=="]}}, "dilations": {"list": {"i": ["1", "1", "1", "1"]}}, "strides": {"list": {"i": ["1", "1", "1", "1"]}}, "num_args": {"i": "1"}, "epsilon": {"f": 0.0}, "data_format": {"s": "TkhXQw=="}, "T": {"type": "DT_FLOAT"}, "explicit_paddings": {"list": {}}, "use_cudnn_on_gpu": {"b": true}, "padding": {"s": "VkFMSUQ="}}}, {"name": "StatefulPartitionedCall/model/339/add", "op": "AddV2", "input": ["StatefulPartitionedCall/model/327/Relu", "StatefulPartitionedCall/model/459/BiasAdd"], "attr": {"T": {"type": "DT_FLOAT"}}}, {"name": "StatefulPartitionedCall/model/340/Relu", "op": "Relu", "input": ["StatefulPartitionedCall/model/339/add"], "attr": {"T": {"type": "DT_FLOAT"}}}, {"name": "StatefulPartitionedCall/model/462_pad/Pad", "op": "Pad", "input": ["StatefulPartitionedCall/model/340/Relu", "StatefulPartitionedCall/model/399_pad/Pad/paddings"], "attr": {"Tpaddings": {"type": "DT_INT32"}, "T": {"type": "DT_FLOAT"}}}, {"name": "StatefulPartitionedCall/model/462/depthwise", "op": "FusedDepthwiseConv2dNative", "input": ["StatefulPartitionedCall/model/462_pad/Pad", "Func/StatefulPartitionedCall/input/_48", "Func/StatefulPartitionedCall/input/_49"], "attr": {"num_args": {"i": "1"}, "dilations": {"list": {"i": ["1", "1", "1", "1"]}}, "fused_ops": {"list": {"s": ["Qmlhc0FkZA==", "UmVsdQ=="]}}, "data_format": {"s": "TkhXQw=="}, "strides": {"list": {"i": ["1", "1", "1", "1"]}}, "T": {"type": "DT_FLOAT"}, "padding": {"s": "VkFMSUQ="}}}, {"name": "StatefulPartitionedCall/model/346/Relu", "op": "_FusedConv2D", "input": ["StatefulPartitionedCall/model/462/depthwise", "Func/StatefulPartitionedCall/input/_50", "Func/StatefulPartitionedCall/input/_51"], "device": "/device:CPU:0", "attr": {"epsilon": {"f": 0.0}, "fused_ops": {"list": {"s": ["Qmlhc0FkZA==", "UmVsdQ=="]}}, "explicit_paddings": {"list": {}}, "strides": {"list": {"i": ["1", "1", "1", "1"]}}, "T": {"type": "DT_FLOAT"}, "data_format": {"s": "TkhXQw=="}, "num_args": {"i": "1"}, "padding": {"s": "VkFMSUQ="}, "use_cudnn_on_gpu": {"b": true}, "dilations": {"list": {"i": ["1", "1", "1", "1"]}}}}, {"name": "StatefulPartitionedCall/model/468_pad/Pad", "op": "Pad", "input": ["StatefulPartitionedCall/model/346/Relu", "StatefulPartitionedCall/model/405_pad/Pad/paddings"], "attr": {"T": {"type": "DT_FLOAT"}, "Tpaddings": {"type": "DT_INT32"}}}, {"name": "StatefulPartitionedCall/model/468/depthwise", "op": "FusedDepthwiseConv2dNative", "input": ["StatefulPartitionedCall/model/468_pad/Pad", "Func/StatefulPartitionedCall/input/_52", "Func/StatefulPartitionedCall/input/_53"], "attr": {"strides": {"list": {"i": ["1", "1", "1", "1"]}}, "num_args": {"i": "1"}, "fused_ops": {"list": {"s": ["Qmlhc0FkZA==", "UmVsdQ=="]}}, "data_format": {"s": "TkhXQw=="}, "padding": {"s": "VkFMSUQ="}, "T": {"type": "DT_FLOAT"}, "dilations": {"list": {"i": ["1", "1", "1", "1"]}}}}, {"name": "StatefulPartitionedCall/model/471/BiasAdd", "op": "_FusedConv2D", "input": ["StatefulPartitionedCall/model/468/depthwise", "Func/StatefulPartitionedCall/input/_54", "Func/StatefulPartitionedCall/input/_55"], "device": "/device:CPU:0", "attr": {"explicit_paddings": {"list": {}}, "use_cudnn_on_gpu": {"b": true}, "T": {"type": "DT_FLOAT"}, "strides": {"list": {"i": ["1", "1", "1", "1"]}}, "fused_ops": {"list": {"s": ["Qmlhc0FkZA=="]}}, "epsilon": {"f": 0.0}, "dilations": {"list": {"i": ["1", "1", "1", "1"]}}, "num_args": {"i": "1"}, "padding": {"s": "VkFMSUQ="}, "data_format": {"s": "TkhXQw=="}}}, {"name": "StatefulPartitionedCall/model/352/add", "op": "AddV2", "input": ["StatefulPartitionedCall/model/340/Relu", "StatefulPartitionedCall/model/471/BiasAdd"], "attr": {"T": {"type": "DT_FLOAT"}}}, {"name": "StatefulPartitionedCall/model/353/Relu", "op": "Relu", "input": ["StatefulPartitionedCall/model/352/add"], "attr": {"T": {"type": "DT_FLOAT"}}}, {"name": "StatefulPartitionedCall/model/474_pad/Pad", "op": "Pad", "input": ["StatefulPartitionedCall/model/353/Relu", "StatefulPartitionedCall/model/399_pad/Pad/paddings"], "attr": {"T": {"type": "DT_FLOAT"}, "Tpaddings": {"type": "DT_INT32"}}}, {"name": "StatefulPartitionedCall/model/474/depthwise", "op": "FusedDepthwiseConv2dNative", "input": ["StatefulPartitionedCall/model/474_pad/Pad", "Func/StatefulPartitionedCall/input/_56", "Func/StatefulPartitionedCall/input/_57"], "attr": {"data_format": {"s": "TkhXQw=="}, "num_args": {"i": "1"}, "strides": {"list": {"i": ["1", "1", "1", "1"]}}, "T": {"type": "DT_FLOAT"}, "dilations": {"list": {"i": ["1", "1", "1", "1"]}}, "fused_ops": {"list": {"s": ["Qmlhc0FkZA==", "UmVsdQ=="]}}, "padding": {"s": "VkFMSUQ="}}}, {"name": "StatefulPartitionedCall/model/359/Relu", "op": "_FusedConv2D", "input": ["StatefulPartitionedCall/model/474/depthwise", "Func/StatefulPartitionedCall/input/_58", "Func/StatefulPartitionedCall/input/_59"], "device": "/device:CPU:0", "attr": {"dilations": {"list": {"i": ["1", "1", "1", "1"]}}, "T": {"type": "DT_FLOAT"}, "explicit_paddings": {"list": {}}, "padding": {"s": "VkFMSUQ="}, "data_format": {"s": "TkhXQw=="}, "num_args": {"i": "1"}, "strides": {"list": {"i": ["1", "1", "1", "1"]}}, "use_cudnn_on_gpu": {"b": true}, "fused_ops": {"list": {"s": ["Qmlhc0FkZA==", "UmVsdQ=="]}}, "epsilon": {"f": 0.0}}}, {"name": "StatefulPartitionedCall/model/480_pad/Pad", "op": "Pad", "input": ["StatefulPartitionedCall/model/359/Relu", "StatefulPartitionedCall/model/405_pad/Pad/paddings"], "attr": {"T": {"type": "DT_FLOAT"}, "Tpaddings": {"type": "DT_INT32"}}}, {"name": "StatefulPartitionedCall/model/480/depthwise", "op": "FusedDepthwiseConv2dNative", "input": ["StatefulPartitionedCall/model/480_pad/Pad", "Func/StatefulPartitionedCall/input/_60", "Func/StatefulPartitionedCall/input/_61"], "attr": {"num_args": {"i": "1"}, "data_format": {"s": "TkhXQw=="}, "strides": {"list": {"i": ["1", "1", "1", "1"]}}, "dilations": {"list": {"i": ["1", "1", "1", "1"]}}, "fused_ops": {"list": {"s": ["Qmlhc0FkZA==", "UmVsdQ=="]}}, "T": {"type": "DT_FLOAT"}, "padding": {"s": "VkFMSUQ="}}}, {"name": "StatefulPartitionedCall/model/483/BiasAdd", "op": "_FusedConv2D", "input": ["StatefulPartitionedCall/model/480/depthwise", "Func/StatefulPartitionedCall/input/_62", "Func/StatefulPartitionedCall/input/_63"], "device": "/device:CPU:0", "attr": {"padding": {"s": "VkFMSUQ="}, "strides": {"list": {"i": ["1", "1", "1", "1"]}}, "epsilon": {"f": 0.0}, "explicit_paddings": {"list": {}}, "dilations": {"list": {"i": ["1", "1", "1", "1"]}}, "data_format": {"s": "TkhXQw=="}, "fused_ops": {"list": {"s": ["Qmlhc0FkZA=="]}}, "use_cudnn_on_gpu": {"b": true}, "num_args": {"i": "1"}, "T": {"type": "DT_FLOAT"}}}, {"name": "StatefulPartitionedCall/model/365/add", "op": "AddV2", "input": ["StatefulPartitionedCall/model/353/Relu", "StatefulPartitionedCall/model/483/BiasAdd"], "attr": {"T": {"type": "DT_FLOAT"}}}, {"name": "StatefulPartitionedCall/model/366/Relu", "op": "Relu", "input": ["StatefulPartitionedCall/model/365/add"], "attr": {"T": {"type": "DT_FLOAT"}}}, {"name": "StatefulPartitionedCall/model/486_pad/Pad", "op": "Pad", "input": ["StatefulPartitionedCall/model/366/Relu", "StatefulPartitionedCall/model/399_pad/Pad/paddings"], "attr": {"T": {"type": "DT_FLOAT"}, "Tpaddings": {"type": "DT_INT32"}}}, {"name": "StatefulPartitionedCall/model/486/depthwise", "op": "FusedDepthwiseConv2dNative", "input": ["StatefulPartitionedCall/model/486_pad/Pad", "Func/StatefulPartitionedCall/input/_64", "Func/StatefulPartitionedCall/input/_65"], "attr": {"fused_ops": {"list": {"s": ["Qmlhc0FkZA==", "UmVsdQ=="]}}, "strides": {"list": {"i": ["1", "1", "1", "1"]}}, "padding": {"s": "VkFMSUQ="}, "T": {"type": "DT_FLOAT"}, "dilations": {"list": {"i": ["1", "1", "1", "1"]}}, "data_format": {"s": "TkhXQw=="}, "num_args": {"i": "1"}}}, {"name": "StatefulPartitionedCall/model/372/Relu", "op": "_FusedConv2D", "input": ["StatefulPartitionedCall/model/486/depthwise", "Func/StatefulPartitionedCall/input/_66", "Func/StatefulPartitionedCall/input/_67"], "device": "/device:CPU:0", "attr": {"data_format": {"s": "TkhXQw=="}, "use_cudnn_on_gpu": {"b": true}, "padding": {"s": "VkFMSUQ="}, "T": {"type": "DT_FLOAT"}, "explicit_paddings": {"list": {}}, "fused_ops": {"list": {"s": ["Qmlhc0FkZA==", "UmVsdQ=="]}}, "num_args": {"i": "1"}, "dilations": {"list": {"i": ["1", "1", "1", "1"]}}, "strides": {"list": {"i": ["1", "1", "1", "1"]}}, "epsilon": {"f": 0.0}}}, {"name": "StatefulPartitionedCall/model/492_pad/Pad", "op": "Pad", "input": ["StatefulPartitionedCall/model/372/Relu", "StatefulPartitionedCall/model/405_pad/Pad/paddings"], "attr": {"T": {"type": "DT_FLOAT"}, "Tpaddings": {"type": "DT_INT32"}}}, {"name": "StatefulPartitionedCall/model/492/depthwise", "op": "FusedDepthwiseConv2dNative", "input": ["StatefulPartitionedCall/model/492_pad/Pad", "Func/StatefulPartitionedCall/input/_68", "Func/StatefulPartitionedCall/input/_69"], "attr": {"strides": {"list": {"i": ["1", "1", "1", "1"]}}, "dilations": {"list": {"i": ["1", "1", "1", "1"]}}, "padding": {"s": "VkFMSUQ="}, "num_args": {"i": "1"}, "fused_ops": {"list": {"s": ["Qmlhc0FkZA==", "UmVsdQ=="]}}, "T": {"type": "DT_FLOAT"}, "data_format": {"s": "TkhXQw=="}}}, {"name": "StatefulPartitionedCall/model/495/BiasAdd", "op": "_FusedConv2D", "input": ["StatefulPartitionedCall/model/492/depthwise", "Func/StatefulPartitionedCall/input/_70", "Func/StatefulPartitionedCall/input/_71"], "device": "/device:CPU:0", "attr": {"use_cudnn_on_gpu": {"b": true}, "T": {"type": "DT_FLOAT"}, "num_args": {"i": "1"}, "data_format": {"s": "TkhXQw=="}, "fused_ops": {"list": {"s": ["Qmlhc0FkZA=="]}}, "strides": {"list": {"i": ["1", "1", "1", "1"]}}, "explicit_paddings": {"list": {}}, "dilations": {"list": {"i": ["1", "1", "1", "1"]}}, "epsilon": {"f": 0.0}, "padding": {"s": "VkFMSUQ="}}}, {"name": "StatefulPartitionedCall/model/378/add", "op": "AddV2", "input": ["StatefulPartitionedCall/model/366/Relu", "StatefulPartitionedCall/model/495/BiasAdd"], "attr": {"T": {"type": "DT_FLOAT"}}}, {"name": "StatefulPartitionedCall/model/379/Relu", "op": "Relu", "input": ["StatefulPartitionedCall/model/378/add"], "attr": {"T": {"type": "DT_FLOAT"}}}, {"name": "StatefulPartitionedCall/model/498_pad/Pad", "op": "Pad", "input": ["StatefulPartitionedCall/model/379/Relu", "StatefulPartitionedCall/model/399_pad/Pad/paddings"], "attr": {"Tpaddings": {"type": "DT_INT32"}, "T": {"type": "DT_FLOAT"}}}, {"name": "StatefulPartitionedCall/model/498/depthwise", "op": "FusedDepthwiseConv2dNative", "input": ["StatefulPartitionedCall/model/498_pad/Pad", "Func/StatefulPartitionedCall/input/_72", "Func/StatefulPartitionedCall/input/_73"], "attr": {"data_format": {"s": "TkhXQw=="}, "dilations": {"list": {"i": ["1", "1", "1", "1"]}}, "padding": {"s": "VkFMSUQ="}, "strides": {"list": {"i": ["1", "1", "1", "1"]}}, "T": {"type": "DT_FLOAT"}, "num_args": {"i": "1"}, "fused_ops": {"list": {"s": ["Qmlhc0FkZA==", "UmVsdQ=="]}}}}, {"name": "StatefulPartitionedCall/model/385/Relu", "op": "_FusedConv2D", "input": ["StatefulPartitionedCall/model/498/depthwise", "Func/StatefulPartitionedCall/input/_74", "Func/StatefulPartitionedCall/input/_75"], "device": "/device:CPU:0", "attr": {"dilations": {"list": {"i": ["1", "1", "1", "1"]}}, "strides": {"list": {"i": ["1", "1", "1", "1"]}}, "fused_ops": {"list": {"s": ["Qmlhc0FkZA==", "UmVsdQ=="]}}, "padding": {"s": "VkFMSUQ="}, "num_args": {"i": "1"}, "use_cudnn_on_gpu": {"b": true}, "explicit_paddings": {"list": {}}, "epsilon": {"f": 0.0}, "data_format": {"s": "TkhXQw=="}, "T": {"type": "DT_FLOAT"}}}, {"name": "StatefulPartitionedCall/model/504_pad/Pad", "op": "Pad", "input": ["StatefulPartitionedCall/model/385/Relu", "StatefulPartitionedCall/model/405_pad/Pad/paddings"], "attr": {"Tpaddings": {"type": "DT_INT32"}, "T": {"type": "DT_FLOAT"}}}, {"name": "StatefulPartitionedCall/model/504/depthwise", "op": "FusedDepthwiseConv2dNative", "input": ["StatefulPartitionedCall/model/504_pad/Pad", "Func/StatefulPartitionedCall/input/_76", "Func/StatefulPartitionedCall/input/_77"], "attr": {"num_args": {"i": "1"}, "T": {"type": "DT_FLOAT"}, "fused_ops": {"list": {"s": ["Qmlhc0FkZA==", "UmVsdQ=="]}}, "padding": {"s": "VkFMSUQ="}, "strides": {"list": {"i": ["1", "1", "1", "1"]}}, "data_format": {"s": "TkhXQw=="}, "dilations": {"list": {"i": ["1", "1", "1", "1"]}}}}, {"name": "StatefulPartitionedCall/model/507/BiasAdd", "op": "_FusedConv2D", "input": ["StatefulPartitionedCall/model/504/depthwise", "Func/StatefulPartitionedCall/input/_78", "Func/StatefulPartitionedCall/input/_79"], "device": "/device:CPU:0", "attr": {"T": {"type": "DT_FLOAT"}, "data_format": {"s": "TkhXQw=="}, "explicit_paddings": {"list": {}}, "epsilon": {"f": 0.0}, "strides": {"list": {"i": ["1", "1", "1", "1"]}}, "use_cudnn_on_gpu": {"b": true}, "num_args": {"i": "1"}, "dilations": {"list": {"i": ["1", "1", "1", "1"]}}, "padding": {"s": "VkFMSUQ="}, "fused_ops": {"list": {"s": ["Qmlhc0FkZA=="]}}}}, {"name": "StatefulPartitionedCall/model/391/add", "op": "AddV2", "input": ["StatefulPartitionedCall/model/379/Relu", "StatefulPartitionedCall/model/507/BiasAdd"], "attr": {"T": {"type": "DT_FLOAT"}}}, {"name": "StatefulPartitionedCall/model/392/Relu", "op": "Relu", "input": ["StatefulPartitionedCall/model/391/add"], "attr": {"T": {"type": "DT_FLOAT"}}}, {"name": "StatefulPartitionedCall/model/393/BiasAdd", "op": "_FusedConv2D", "input": ["StatefulPartitionedCall/model/392/Relu", "Func/StatefulPartitionedCall/input/_80", "Func/StatefulPartitionedCall/input/_81"], "device": "/device:CPU:0", "attr": {"use_cudnn_on_gpu": {"b": true}, "epsilon": {"f": 0.0}, "dilations": {"list": {"i": ["1", "1", "1", "1"]}}, "strides": {"list": {"i": ["1", "1", "1", "1"]}}, "T": {"type": "DT_FLOAT"}, "num_args": {"i": "1"}, "explicit_paddings": {"list": {}}, "fused_ops": {"list": {"s": ["Qmlhc0FkZA=="]}}, "data_format": {"s": "TkhXQw=="}, "padding": {"s": "VkFMSUQ="}}}, {"name": "StatefulPartitionedCall/model/394/Shape", "op": "Shape", "input": ["StatefulPartitionedCall/model/393/BiasAdd"], "attr": {"T": {"type": "DT_FLOAT"}, "out_type": {"type": "DT_INT32"}}}, {"name": "StatefulPartitionedCall/model/394/strided_slice", "op": "StridedSlice", "input": ["StatefulPartitionedCall/model/394/Shape", "StatefulPartitionedCall/model/394/strided_slice/stack", "StatefulPartitionedCall/model/394/strided_slice/stack_1", "StatefulPartitionedCall/model/394/strided_slice/stack_1"], "attr": {"shrink_axis_mask": {"i": "1"}, "T": {"type": "DT_INT32"}, "ellipsis_mask": {"i": "0"}, "Index": {"type": "DT_INT32"}, "new_axis_mask": {"i": "0"}, "end_mask": {"i": "0"}, "begin_mask": {"i": "0"}}}, {"name": "StatefulPartitionedCall/model/394/strided_slice_1", "op": "StridedSlice", "input": ["StatefulPartitionedCall/model/394/Shape", "StatefulPartitionedCall/model/394/strided_slice/stack_1", "StatefulPartitionedCall/model/394/strided_slice_1/stack_1", "StatefulPartitionedCall/model/394/strided_slice/stack_1"], "attr": {"ellipsis_mask": {"i": "0"}, "new_axis_mask": {"i": "0"}, "Index": {"type": "DT_INT32"}, "shrink_axis_mask": {"i": "1"}, "begin_mask": {"i": "0"}, "end_mask": {"i": "0"}, "T": {"type": "DT_INT32"}}}, {"name": "StatefulPartitionedCall/model/394/strided_slice_2", "op": "StridedSlice", "input": ["StatefulPartitionedCall/model/394/Shape", "StatefulPartitionedCall/model/394/strided_slice_1/stack_1", "StatefulPartitionedCall/model/394/strided_slice_2/stack_1", "StatefulPartitionedCall/model/394/strided_slice/stack_1"], "attr": {"shrink_axis_mask": {"i": "1"}, "end_mask": {"i": "0"}, "new_axis_mask": {"i": "0"}, "Index": {"type": "DT_INT32"}, "ellipsis_mask": {"i": "0"}, "T": {"type": "DT_INT32"}, "begin_mask": {"i": "0"}}}, {"name": "StatefulPartitionedCall/model/394/sub", "op": "Sub", "input": ["StatefulPartitionedCall/model/394/strided_slice_1", "StatefulPartitionedCall/model/394/sub/y"], "attr": {"T": {"type": "DT_INT32"}}}, {"name": "StatefulPartitionedCall/model/394/sub_2", "op": "Sub", "input": ["StatefulPartitionedCall/model/394/strided_slice_2", "StatefulPartitionedCall/model/394/sub/y"], "attr": {"T": {"type": "DT_INT32"}}}, {"name": "StatefulPartitionedCall/model/394/mul", "op": "Mul", "input": ["StatefulPartitionedCall/model/394/mul/y", "StatefulPartitionedCall/model/394/sub"], "attr": {"T": {"type": "DT_INT32"}}}, {"name": "StatefulPartitionedCall/model/394/mul_1", "op": "Mul", "input": ["StatefulPartitionedCall/model/394/mul/y", "StatefulPartitionedCall/model/394/sub_2"], "attr": {"T": {"type": "DT_INT32"}}}, {"name": "StatefulPartitionedCall/model/394/add", "op": "AddV2", "input": ["StatefulPartitionedCall/model/394/add/y", "StatefulPartitionedCall/model/394/mul"], "attr": {"T": {"type": "DT_INT32"}}}, {"name": "StatefulPartitionedCall/model/394/add_2", "op": "AddV2", "input": ["StatefulPartitionedCall/model/394/add/y", "StatefulPartitionedCall/model/394/mul_1"], "attr": {"T": {"type": "DT_INT32"}}}, {"name": "StatefulPartitionedCall/model/394/stack", "op": "Pack", "input": ["StatefulPartitionedCall/model/394/strided_slice", "StatefulPartitionedCall/model/394/add", "StatefulPartitionedCall/model/394/add_2", "StatefulPartitionedCall/model/394/sub/y"], "attr": {"axis": {"i": "0"}, "N": {"i": "4"}, "T": {"type": "DT_INT32"}}}, {"name": "StatefulPartitionedCall/model/394/conv2d_transpose", "op": "Conv2DBackpropInput", "input": ["StatefulPartitionedCall/model/394/stack", "Func/StatefulPartitionedCall/input/_82", "StatefulPartitionedCall/model/393/BiasAdd"], "attr": {"T": {"type": "DT_FLOAT"}, "use_cudnn_on_gpu": {"b": true}, "explicit_paddings": {"list": {}}, "padding": {"s": "VkFMSUQ="}, "strides": {"list": {"i": ["1", "8", "8", "1"]}}, "data_format": {"s": "TkhXQw=="}, "dilations": {"list": {"i": ["1", "1", "1", "1"]}}}}, {"name": "StatefulPartitionedCall/model/394_crop/strided_slice", "op": "StridedSlice", "input": ["StatefulPartitionedCall/model/394/conv2d_transpose", "StatefulPartitionedCall/model/394_crop/strided_slice/stack", "StatefulPartitionedCall/model/394_crop/strided_slice/stack_1", "StatefulPartitionedCall/model/394_crop/strided_slice/stack_2"], "attr": {"Index": {"type": "DT_INT32"}, "ellipsis_mask": {"i": "0"}, "shrink_axis_mask": {"i": "0"}, "T": {"type": "DT_FLOAT"}, "end_mask": {"i": "9"}, "begin_mask": {"i": "9"}, "new_axis_mask": {"i": "0"}}}, {"name": "StatefulPartitionedCall/model/output/Sigmoid", "op": "Sigmoid", "input": ["StatefulPartitionedCall/model/394_crop/strided_slice"], "attr": {"T": {"type": "DT_FLOAT"}}}, {"name": "Identity", "op": "Identity", "input": ["StatefulPartitionedCall/model/output/Sigmoid"], "attr": {"T": {"type": "DT_FLOAT"}}}], "library": {}, "versions": {"producer": 175}}, "weightsManifest": [{"paths": ["group1-shard1of1.bin"], "weights": [{"name": "StatefulPartitionedCall/model/394/strided_slice/stack", "shape": [1], "dtype": "int32"}, {"name": "StatefulPartitionedCall/model/394/add/y", "shape": [], "dtype": "int32"}, {"name": "StatefulPartitionedCall/model/394/mul/y", "shape": [], "dtype": "int32"}, {"name": "StatefulPartitionedCall/model/394/strided_slice_1/stack_1", "shape": [1], "dtype": "int32"}, {"name": "StatefulPartitionedCall/model/394/strided_slice_2/stack_1", "shape": [1], "dtype": "int32"}, {"name": "StatefulPartitionedCall/model/394/strided_slice/stack_1", "shape": [1], "dtype": "int32"}, {"name": "StatefulPartitionedCall/model/394/sub/y", "shape": [], "dtype": "int32"}, {"name": "Func/StatefulPartitionedCall/input/_82", "shape": [16, 16, 1, 1], "dtype": "float32"}, {"name": "Func/StatefulPartitionedCall/input/_2", "shape": [1, 1, 3, 3], "dtype": "float32"}, {"name": "Func/StatefulPartitionedCall/input/_3", "shape": [3], "dtype": "float32"}, {"name": "Func/StatefulPartitionedCall/input/_4", "shape": [4, 4, 3, 32], "dtype": "float32"}, {"name": "Func/StatefulPartitionedCall/input/_77", "shape": [54], "dtype": "float32"}, {"name": "Func/StatefulPartitionedCall/input/_5", "shape": [32], "dtype": "float32"}, {"name": "Func/StatefulPartitionedCall/input/_6", "shape": [3, 3, 32, 1], "dtype": "float32"}, {"name": "Func/StatefulPartitionedCall/input/_7", "shape": [32], "dtype": "float32"}, {"name": "Func/StatefulPartitionedCall/input/_8", "shape": [1, 1, 32, 32], "dtype": "float32"}, {"name": "Func/StatefulPartitionedCall/input/_9", "shape": [32], "dtype": "float32"}, {"name": "Func/StatefulPartitionedCall/input/_10", "shape": [5, 5, 32, 1], "dtype": "float32"}, {"name": "Func/StatefulPartitionedCall/input/_11", "shape": [32], "dtype": "float32"}, {"name": "Func/StatefulPartitionedCall/input/_12", "shape": [1, 1, 32, 32], "dtype": "float32"}, {"name": "Func/StatefulPartitionedCall/input/_13", "shape": [32], "dtype": "float32"}, {"name": "Func/StatefulPartitionedCall/input/_14", "shape": [2, 2, 32, 31], "dtype": "float32"}, {"name": "Func/StatefulPartitionedCall/input/_15", "shape": [31], "dtype": "float32"}, {"name": "Func/StatefulPartitionedCall/input/_16", "shape": [3, 3, 31, 1], "dtype": "float32"}, {"name": "Func/StatefulPartitionedCall/input/_17", "shape": [31], "dtype": "float32"}, {"name": "Func/StatefulPartitionedCall/input/_18", "shape": [1, 1, 31, 32], "dtype": "float32"}, {"name": "Func/StatefulPartitionedCall/input/_19", "shape": [32], "dtype": "float32"}, {"name": "Func/StatefulPartitionedCall/input/_20", "shape": [5, 5, 32, 1], "dtype": "float32"}, {"name": "Func/StatefulPartitionedCall/input/_21", "shape": [32], "dtype": "float32"}, {"name": "Func/StatefulPartitionedCall/input/_22", "shape": [1, 1, 32, 31], "dtype": "float32"}, {"name": "Func/StatefulPartitionedCall/input/_23", "shape": [31], "dtype": "float32"}, {"name": "Func/StatefulPartitionedCall/input/_24", "shape": [3, 3, 31, 1], "dtype": "float32"}, {"name": "Func/StatefulPartitionedCall/input/_25", "shape": [31], "dtype": "float32"}, {"name": "Func/StatefulPartitionedCall/input/_26", "shape": [1, 1, 31, 32], "dtype": "float32"}, {"name": "Func/StatefulPartitionedCall/input/_27", "shape": [32], "dtype": "float32"}, {"name": "Func/StatefulPartitionedCall/input/_28", "shape": [5, 5, 32, 1], "dtype": "float32"}, {"name": "Func/StatefulPartitionedCall/input/_29", "shape": [32], "dtype": "float32"}, {"name": "Func/StatefulPartitionedCall/input/_30", "shape": [1, 1, 32, 40], "dtype": "float32"}, {"name": "Func/StatefulPartitionedCall/input/_31", "shape": [40], "dtype": "float32"}, {"name": "Func/StatefulPartitionedCall/input/_32", "shape": [3, 3, 40, 1], "dtype": "float32"}, {"name": "Func/StatefulPartitionedCall/input/_33", "shape": [40], "dtype": "float32"}, {"name": "Func/StatefulPartitionedCall/input/_34", "shape": [1, 1, 40, 63], "dtype": "float32"}, {"name": "Func/StatefulPartitionedCall/input/_35", "shape": [63], "dtype": "float32"}, {"name": "Func/StatefulPartitionedCall/input/_36", "shape": [5, 5, 63, 1], "dtype": "float32"}, {"name": "Func/StatefulPartitionedCall/input/_37", "shape": [63], "dtype": "float32"}, {"name": "Func/StatefulPartitionedCall/input/_38", "shape": [1, 1, 63, 40], "dtype": "float32"}, {"name": "Func/StatefulPartitionedCall/input/_39", "shape": [40], "dtype": "float32"}, {"name": "Func/StatefulPartitionedCall/input/_40", "shape": [3, 3, 40, 1], "dtype": "float32"}, {"name": "Func/StatefulPartitionedCall/input/_41", "shape": [40], "dtype": "float32"}, {"name": "Func/StatefulPartitionedCall/input/_42", "shape": [1, 1, 40, 64], "dtype": "float32"}, {"name": "Func/StatefulPartitionedCall/input/_43", "shape": [64], "dtype": "float32"}, {"name": "Func/StatefulPartitionedCall/input/_44", "shape": [5, 5, 64, 1], "dtype": "float32"}, {"name": "Func/StatefulPartitionedCall/input/_45", "shape": [64], "dtype": "float32"}, {"name": "Func/StatefulPartitionedCall/input/_46", "shape": [1, 1, 64, 40], "dtype": "float32"}, {"name": "Func/StatefulPartitionedCall/input/_47", "shape": [40], "dtype": "float32"}, {"name": "Func/StatefulPartitionedCall/input/_48", "shape": [3, 3, 40, 1], "dtype": "float32"}, {"name": "Func/StatefulPartitionedCall/input/_49", "shape": [40], "dtype": "float32"}, {"name": "Func/StatefulPartitionedCall/input/_50", "shape": [1, 1, 40, 62], "dtype": "float32"}, {"name": "Func/StatefulPartitionedCall/input/_51", "shape": [62], "dtype": "float32"}, {"name": "Func/StatefulPartitionedCall/input/_52", "shape": [5, 5, 62, 1], "dtype": "float32"}, {"name": "Func/StatefulPartitionedCall/input/_53", "shape": [62], "dtype": "float32"}, {"name": "Func/StatefulPartitionedCall/input/_54", "shape": [1, 1, 62, 40], "dtype": "float32"}, {"name": "Func/StatefulPartitionedCall/input/_55", "shape": [40], "dtype": "float32"}, {"name": "Func/StatefulPartitionedCall/input/_56", "shape": [3, 3, 40, 1], "dtype": "float32"}, {"name": "Func/StatefulPartitionedCall/input/_57", "shape": [40], "dtype": "float32"}, {"name": "Func/StatefulPartitionedCall/input/_58", "shape": [1, 1, 40, 62], "dtype": "float32"}, {"name": "Func/StatefulPartitionedCall/input/_59", "shape": [62], "dtype": "float32"}, {"name": "Func/StatefulPartitionedCall/input/_60", "shape": [5, 5, 62, 1], "dtype": "float32"}, {"name": "Func/StatefulPartitionedCall/input/_61", "shape": [62], "dtype": "float32"}, {"name": "Func/StatefulPartitionedCall/input/_62", "shape": [1, 1, 62, 40], "dtype": "float32"}, {"name": "Func/StatefulPartitionedCall/input/_63", "shape": [40], "dtype": "float32"}, {"name": "Func/StatefulPartitionedCall/input/_64", "shape": [3, 3, 40, 1], "dtype": "float32"}, {"name": "Func/StatefulPartitionedCall/input/_65", "shape": [40], "dtype": "float32"}, {"name": "Func/StatefulPartitionedCall/input/_66", "shape": [1, 1, 40, 64], "dtype": "float32"}, {"name": "Func/StatefulPartitionedCall/input/_67", "shape": [64], "dtype": "float32"}, {"name": "Func/StatefulPartitionedCall/input/_68", "shape": [5, 5, 64, 1], "dtype": "float32"}, {"name": "Func/StatefulPartitionedCall/input/_69", "shape": [64], "dtype": "float32"}, {"name": "Func/StatefulPartitionedCall/input/_70", "shape": [1, 1, 64, 40], "dtype": "float32"}, {"name": "Func/StatefulPartitionedCall/input/_71", "shape": [40], "dtype": "float32"}, {"name": "StatefulPartitionedCall/model/399_pad/Pad/paddings", "shape": [4, 2], "dtype": "int32"}, {"name": "Func/StatefulPartitionedCall/input/_72", "shape": [3, 3, 40, 1], "dtype": "float32"}, {"name": "Func/StatefulPartitionedCall/input/_73", "shape": [40], "dtype": "float32"}, {"name": "Func/StatefulPartitionedCall/input/_74", "shape": [1, 1, 40, 54], "dtype": "float32"}, {"name": "Func/StatefulPartitionedCall/input/_75", "shape": [54], "dtype": "float32"}, {"name": "StatefulPartitionedCall/model/405_pad/Pad/paddings", "shape": [4, 2], "dtype": "int32"}, {"name": "Func/StatefulPartitionedCall/input/_78", "shape": [1, 1, 54, 40], "dtype": "float32"}, {"name": "Func/StatefulPartitionedCall/input/_79", "shape": [40], "dtype": "float32"}, {"name": "Func/StatefulPartitionedCall/input/_80", "shape": [1, 1, 40, 1], "dtype": "float32"}, {"name": "Func/StatefulPartitionedCall/input/_81", "shape": [1], "dtype": "float32"}, {"name": "StatefulPartitionedCall/model/394_crop/strided_slice/stack", "shape": [4], "dtype": "int32"}, {"name": "StatefulPartitionedCall/model/394_crop/strided_slice/stack_1", "shape": [4], "dtype": "int32"}, {"name": "StatefulPartitionedCall/model/394_crop/strided_slice/stack_2", "shape": [4], "dtype": "int32"}, {"name": "Func/StatefulPartitionedCall/input/_76", "shape": [5, 5, 54, 1], "dtype": "float32"}]}]}